>>> possibly using many CPUs
_________________________________________________________________
Layer (type)                 Output Shape              Param #   
=================================================================
dense_1 (Dense)              (None, 128)               1152      
_________________________________________________________________
batch_normalization_1 (Batch (None, 128)               512       
_________________________________________________________________
leaky_re_lu_1 (LeakyReLU)    (None, 128)               0         
_________________________________________________________________
dense_2 (Dense)              (None, 256)               33024     
_________________________________________________________________
leaky_re_lu_2 (LeakyReLU)    (None, 256)               0         
_________________________________________________________________
dense_3 (Dense)              (None, 512)               131584    
_________________________________________________________________
leaky_re_lu_3 (LeakyReLU)    (None, 512)               0         
_________________________________________________________________
dense_4 (Dense)              (None, 1024)              525312    
_________________________________________________________________
leaky_re_lu_4 (LeakyReLU)    (None, 1024)              0         
_________________________________________________________________
dense_5 (Dense)              (None, 1024)              1049600   
_________________________________________________________________
leaky_re_lu_5 (LeakyReLU)    (None, 1024)              0         
_________________________________________________________________
dense_6 (Dense)              (None, 512)               524800    
_________________________________________________________________
leaky_re_lu_6 (LeakyReLU)    (None, 512)               0         
_________________________________________________________________
dense_7 (Dense)              (None, 256)               131328    
_________________________________________________________________
leaky_re_lu_7 (LeakyReLU)    (None, 256)               0         
_________________________________________________________________
dense_8 (Dense)              (None, 128)               32896     
_________________________________________________________________
leaky_re_lu_8 (LeakyReLU)    (None, 128)               0         
_________________________________________________________________
dense_9 (Dense)              (None, 64)                8256      
_________________________________________________________________
leaky_re_lu_9 (LeakyReLU)    (None, 64)                0         
_________________________________________________________________
dense_10 (Dense)             (None, 1)                 65        
=================================================================
Total params: 2,438,529
Trainable params: 2,438,273
Non-trainable params: 256
_________________________________________________________________
_________________________________________________________________
Layer (type)                 Output Shape              Param #   
=================================================================
dense_11 (Dense)             (None, 64)                576       
_________________________________________________________________
leaky_re_lu_10 (LeakyReLU)   (None, 64)                0         
_________________________________________________________________
dense_12 (Dense)             (None, 128)               8320      
_________________________________________________________________
leaky_re_lu_11 (LeakyReLU)   (None, 128)               0         
_________________________________________________________________
dense_13 (Dense)             (None, 256)               33024     
_________________________________________________________________
leaky_re_lu_12 (LeakyReLU)   (None, 256)               0         
_________________________________________________________________
dense_14 (Dense)             (None, 256)               65792     
_________________________________________________________________
leaky_re_lu_13 (LeakyReLU)   (None, 256)               0         
_________________________________________________________________
dense_15 (Dense)             (None, 256)               65792     
_________________________________________________________________
leaky_re_lu_14 (LeakyReLU)   (None, 256)               0         
_________________________________________________________________
dense_16 (Dense)             (None, 128)               32896     
_________________________________________________________________
leaky_re_lu_15 (LeakyReLU)   (None, 128)               0         
_________________________________________________________________
dense_17 (Dense)             (None, 128)               16512     
_________________________________________________________________
leaky_re_lu_16 (LeakyReLU)   (None, 128)               0         
_________________________________________________________________
dense_18 (Dense)             (None, 64)                8256      
_________________________________________________________________
leaky_re_lu_17 (LeakyReLU)   (None, 64)                0         
_________________________________________________________________
dense_19 (Dense)             (None, 32)                2080      
_________________________________________________________________
leaky_re_lu_18 (LeakyReLU)   (None, 32)                0         
_________________________________________________________________
dense_20 (Dense)             (None, 8)                 264       
=================================================================
Total params: 233,512
Trainable params: 233,512
Non-trainable params: 0
_________________________________________________________________
0 [D loss: 386282043736065.000000] [G loss: 208422028967937.000000]
1 [D loss: -70937961562111.000000] [G loss: 919286881189889.000000]
2 [D loss: -51477397635071.000000] [G loss: 792387039264769.000000]
…
